model/model.pth (torch, 16787 bytes, 4 tensors)

linear1.weight f4 [256, 11]
00000000: ea12 6cbe 0ad2 adbe 89e1 d1be 923c 4d3c
00000010: a34c 2f3e b0c2 523b d80d d93d 00c4 2f3e
00000020: b3d0 3a3e 786b 06bd ccc4 3abe 5285 7b3d
00000030: 2b16 663e 4f0e c6bd 9d19 613d 74c5 6dbe
00000040: 9b53 403e 898d acbe a666 173d 5b5c 023e
00000050: ad0e 0c3e df8f 94be ebba b9be 7c92 8c3e
00000060: c1f1 a23e 56e0 1b3e 0e3b 78be 4ac8 083e
00000070: ed17 283e a79d d83c 9fc4 b1be bdfa b3bd
00000080: 3f7c 6a3e 7dce 42be 5ee1 003f 7dc3 dc3e
00000090: 7ac1 8b3d e618 293e 3955 323e 5045 38be
000000a0: f6fa aabc 00bd 9a3e 7796 613e 1d98 2dbe
000000b0: 75ae d5bd 3c32 8fbe d7ac 9ebe 8edc 90be
000000c0: 0708 fdbd 0c72 a4be aeff 883e 64a6 04be
000000d0: 0edc c0be b429 b3be 6405 6a3d 4384 e2be
000000e0: 5c5a f03d b09d cf3e e3ff fb3d 4e2e 523e
000000f0: 8923 83be 6462 443d 82b7 4f3e a519 25be
00000100: 17b1 81be cdc0 c13d 0c40 95be aeba 0cbe
00000110: 9870 0c3f bfb0 0b3b 874e 48bd 8cd1 ed3c
00000120: 1464 3fbe 1d60 953e 6be5 563e ce03 e23c
00000130: 7fbe 153d 6260 713b e800 ecbd a939 69be
00000140: e70e bfbc fc51 a6be 4601 68bd 10f7 a73e
00000150: 72c6 a73d 111f 923e c4b3 1b3e c063 8ebe
00000160: 1ee5 ea3e cb86 9abe 12f3 ff3e 3f29 06be
00000170: 291e 9c3d 0a9d 263d 4cac dc3d e1b0 5bbd
00000180: c39d 9cbd e13a 9fbd 4cf5 26bd 2fa4 193e
00000190: 2740 a5be 1713 ed3e e0a6 12bd ec74 273e
000001a0: 69fd 803e 346e 433e 9ed2 e13c faba 46be
000001b0: 2bbd 1a3e 71b3 2b3e 3992 80bd 90fa c4bd
000001c0: b20e 90be d472 7fbc 0038 3cbd 6a5a 073d
000001d0: a233 ba3e 8357 3abe fb76 96bd f153 cdbd
000001e0: 7f62 403e a5ee 833e 3222 883e 93cf ba3e
000001f0: 144a febd 120a 253e a4bf 8f3e c968 423e
00000200: 007f 933e 1494 b83c ca20 9a3e 9719 f2bd
00000210: 2714 f03d ec52 613d a076 3abe 82d5 643e
00000220: de09 1a3d 9e13 5c3e 079c 22be 276a 883e
00000230: ba19 51bd 8fcb 8d3e ea5c e13d ab75 cf3e
00000240: 7f14 e13e 8497 f53e 9085 983d 1cfb 2abe
00000250: 4215 8c3e c7cc 76be a88e 9abd cd6d dd3d
00000260: a354 343e 84b6 843e b6b5 8cbe 6a10 8f3e
00000270: e249 403d 659f 8a3d a714 f63d d7a2 7fbe
00000280: e803 cbbd 935f 453e 87bc 263d 83d5 b0be
00000290: 0cd5 83be 53cd 843d 1b3a 8a3d 7769 dfbe
000002a0: 6401 ed3d 6f08 2cbe 5b63 b03e e056 3d3d
000002b0: 4368 25bc 9b7d 72be 91f4 10be 2006 b13e
000002c0: 532e a4be 48e7 cd3b 22ae 423e a269 20bd
000002d0: 160a 6bbd aa00 56be e0ee e8be 9e3e 953e
000002e0: d561 993e bc02 98be b5c8 6ebe d97b 9bbe
000002f0: ca57 0dbe 05aa 47be 52da 973e 0e1d 133e
00000300: 6630 26be 37dc acbe 118c 123d f8d9 883e
00000310: 5ba3 12be 66c5 9bbe 17ad 73be 8e45 683d
00000320: d2c2 f53e 886a 8d3e 769e 223e 01ad d63d
00000330: 2af1 393e 4561 053e 94aa 8b3e a082 193d
00000340: 99ba 4bbe d242 f33e 60cb a1be d1df 03be
00000350: e7a6 07bd 853f 2a3d 6050 8a3e 6d72 543e
00000360: 6b99 ae3c d7c9 85bc 2f40 50bd ac11 1fbe
00000370: 8b68 a5be 4c02 cf3e 8655 98bd fd0f 523e
00000380: c638 913e de01 2c3e ddd2 4dbc 8361 453e
00000390: 52fc 573e f006 c33c 149d 80bc 9fa1 0dbe
000003a0: 8886 58be 6742 9cbe 59ee 653e f749 8cbe
000003b0: 94cb 6abe bf7a 24be f039 3e3e bd51 153d
000003c0: 476a 83be 0b76 b5bb 8c38 063f f575 a13e
000003d0: ac5c 77be b00f c5bd cb10 7b3e 153c 973d
000003e0: 0ab6 2ebd 3e0e dabc 0e0f 153e b5a5 013e
000003f0: 6c1e 813b e35b 70bd 2a71 fc3d 5cb8 0b3f
-0.2305409 -0.3394931 -0.40992382 0.012526648 0.17119078 0.00321595 0.105983436 0.17164612
0.18243675 -0.032817334 -0.18239135 0.06140644 0.22469394 -0.09670698 0.054956067 -0.23219854
0.18781893 -0.33701733 0.036963128 0.12730543 0.13677473 -0.29016015 -0.3627542 0.2745551
0.3182507 0.15222296 -0.24241278 0.13357654 0.16415377 0.026442362 -0.34720322 -0.08788059
0.22898959 -0.19024082 0.50343883 0.43117896 0.06824012 0.16513404 0.17415322 -0.1799519
-0.02087162 0.3022232 0.22030054 -0.16952558 -0.10433666 -0.27968013 -0.3099124 -0.2829327
-0.12355047 -0.3211826 0.26757568 -0.12954098 -0.37667888 -0.34992754 0.057134047 -0.44241533
0.11735985 0.40549994 0.12304666 0.20525476 -0.2561305 0.047945395 0.20284846 -0.16123064
-0.2533042 0.09460602 -0.29150426 -0.13743088 0.54859304 0.0021315066 -0.048903015 0.029030584
-0.1869052 0.2917489 0.20985954 0.027589705 0.036558624 0.003683113 -0.1152361 -0.22775902
-0.023322536 -0.32484424 -0.05664184 0.3280568 0.08192147 0.28539327 0.15205294 -0.27810478
0.45877928 -0.30180964 0.49990135 -0.13101672 0.0762294 0.040677108 0.107750505 -0.05363548
-0.07647278 -0.07774902 -0.040761277 0.15004037 -0.32275507 0.46303627 -0.035803676 0.16353196
0.25193337 0.19085008 0.02756625 -0.19407263 0.15111224 0.1676767 -0.0627789 -0.096181035
-0.28136212 -0.015591342 -0.045951843 0.03304521 0.36367518 -0.18197446 -0.073469125 -0.10025776
0.18787573 0.2576801 0.2658859 0.36486492 -0.12416473 0.16117123 0.28075898 0.18985285
0.2880783 0.022531547 0.3010314 -0.11821287 0.11722594 0.05501072 -0.18209314 0.22347072
0.037607066 0.21491858 -0.15879832 0.26643488 -0.051049925 0.27694365 0.1100405 0.4051946
0.4396095 0.4796716 0.0744735 -0.16697353 0.27359968 -0.24101554 -0.07546741 0.108119585
0.17610411 0.25920498 -0.27482384 0.2794221 0.04694546 0.06768683 0.12015658 -0.24964462
-0.099128544 0.1927474 0.040707137 -0.34537897 -0.2574848 0.06484475 0.06749364 -0.4363515
0.11572531 -0.16800092 0.34450802 0.04622543 -0.010095659 -0.23680727 -0.14155795 0.34574986
-0.32066593 0.0062836744 0.19011739 -0.03916324 -0.057382666 -0.20898691 -0.45494747 0.29149336
0.29957452 -0.29689586 -0.23318751 -0.30367926 -0.1380302 -0.19498451 0.29658753 0.14366552
-0.162294 -0.3376176 0.03577811 0.26728797 -0.14320128 -0.3042404 -0.23796497 0.056706958
0.480002 0.2762034 0.1588076 0.104822166 0.18158403 0.13025387 0.27278578 0.03747809
-0.198954 0.47511917 -0.31600475 -0.12878348 -0.033118155 0.041564483 0.27014446 0.20746775
0.02131339 -0.016331596 -0.05084246 -0.15534085 -0.32306322 0.4043144 -0.07438187 0.20513912
0.28363627 0.16797587 -0.012562481 0.19275479 0.21092346 0.023807019 -0.0156999 -0.13831185
-0.2114507 -0.3051941 0.22454204 -0.2740018 -0.22929221 -0.16062449 0.18576789 0.036454905
-0.2566702 -0.0055377535 0.52430034 0.31535307 -0.24156445 -0.09622133 0.24518125 0.073845066
-0.042654075 -0.02661812 0.14556524 0.12660868 0.003940394 -0.05868138 0.12326272 0.54578185

linear1.bias f4 [256]
00000000: 274a 1b3e 9495 c9be 19b2 be3d 57ca 1cbe
00000010: ccbe 163e 2996 2d3e 1856 4dbd 467f febc
00000020: e359 993e 731b a0bb 60d3 6ebe d8d3 ecbd
00000030: 63b0 14ba c8b9 5ebc 06f2 853e b428 48bd
00000040: 74bd ae3e 7535 113e 1833 7e3e 6eb3 b53a
00000050: 6c98 e83d 477a edbc 8c63 43bb 670e ac3d
00000060: f0ab a23c 5c73 5a3e 5cc1 a3be 5d6e eebd
00000070: 2c21 ac3e 8979 1f3e a279 57be 8106 c2bd
00000080: 6520 fabd 431f 91be a913 e0bd 8ef5 6f3e
00000090: a0f6 a6bd df0a 943d 78e2 07be 3440 c43d
000000a0: 1056 213e 975f 95be d0dc 853d eeab 1f3e
000000b0: a711 873d 01e9 ddbd e9be 903e bf2f cb3e
000000c0: 0e07 13bc 5727 113e 7143 0ebc 882e 0e3e
000000d0: fc9f 673e abb8 20be c60d 0abd 6fe3 87be
000000e0: a35c 6a3d 6853 cdbd 2259 8d3e 20d0 eb3d
000000f0: e0d5 68be 0f4f e63d 2864 86be c810 d9bd
00000100: d77a 533e 7c85 1cb9 8430 243e 2a73 fabd
00000110: bd03 5dbe 4786 0e3e 7fdc cfbd c582 b23c
00000120: 75c1 863e a22e d0bd 8165 28be 6568 853d
00000130: 7b50 0cbe 4be8 803c afb7 fc3d 9c48 123d
00000140: db62 7b3e 7388 4dbe 3e30 7f3e 2f85 1abe
00000150: d970 79bd 66cf f4bc 783f e9ba 653f 643e
00000160: 16e0 60bc bc45 92be b878 c1bd 05f3 763d
00000170: 2229 2dbe d242 903d 035d babd 1907 493d
00000180: e559 02be f7e3 aa3d f27f 723d e7c7 923c
00000190: 6f7d c43d 4e95 1e3e c64b 973d c626 1d3d
000001a0: b5ec 703e 5c14 883e cfa0 013e ddd9 223e
000001b0: fa5d 0ebe 6e5d 583d a255 e23d 4e7e ee3c
000001c0: 861a 58be 2155 3e3d 3bd3 70bd b37f 223d
000001d0: 1f25 403e 9d5f 42be d718 103e 041e 52be
000001e0: 7b23 b83d d301 2bbe e4de 00bd b70a 513e
000001f0: 03da 903e c21a 0a3e 7062 b0bd 86b9 933e
00000200: 99bb 98be c106 0e3e 139e 053e 01c9 8f3e
00000210: 2dfb ab3d 547a b53d e912 b53c 00c2 24be
00000220: 9e23 36bd de11 c8bc 9399 13bd 672d 4a3e
00000230: df2d 503e daf2 653d a65a 393d 7d17 e0bd
00000240: 3043 183e 788a 8dbe 8caa d53d 1781 a53d
00000250: d00c f9bc 17ac 39be 2b25 21be ea26 e13d
00000260: 2164 1e3e 61e8 c43a 4de1 343e 199b a93d
00000270: e424 473d 2f66 ad3e ff00 88be 7773 313e
00000280: b896 253e bc56 13be 1510 fc3d 979b 6d3e
00000290: 523a 2fbe f856 843e a750 99be 9e45 65be
000002a0: 9ec3 593e a295 3dbe 69d2 a3be a44f 1fbe
000002b0: db74 383e be73 a6bd b44b 7bbe e7d5 903d
000002c0: 4d32 00bd b93f 87be 0376 98be 2303 41bd
000002d0: 8704 7b3e 56f1 32be 5db1 9e3e 627e 093e
000002e0: f83c ecbd 01ed 993e 4219 34bd 1d56 3b3d
000002f0: b47d 3e3d cbcd 33be a0eb 8c3c fc54 513e
00000300: 6281 9b3b 999c 16be 15ae 69bd 637a 253e
00000310: 2b5d e83d 9e9f b13c 2f3a 1e3b c45b 78be
00000320: 5ffe d9bd b887 59be b94c 5f3d 65c0 713e
00000330: 31df 353e d1f4 cabd a871 7e3e dd50 0f3e
00000340: 4a76 b33d 921b 543e 5163 403d 970d 2d3d
00000350: 3383 11be d0ba b0bc 44ff d3bc bba1 883e
00000360: 3767 ee3d ba27 2c3d 9f00 b33d 7f2f 823e
00000370: f684 14be 4d53 f43c ef35 edbd 64eb 02be
00000380: 619b 613d 95cb 7ebe e009 b13b 5aae ee3d
00000390: 5eb1 80be 9070 adbd ab26 94bd 43e8 643d
000003a0: 0204 8dbe 17ec d1be 1d44 623e 8f8c 623e
000003b0: 314c 933d 3d1e 8abe c3fa 3d3e 1e6d 3c3d
000003c0: cdd2 6c3e ed69 ca3d 500e 083e 1f8b 853e
000003d0: 369d a1be bede 86bd de59 8c3e 3daa 503d
000003e0: f5ad dbbc a08b fcbd 6d01 613d a71c 973e
000003f0: 7174 823e 8366 2cbe a5fa d7bd 640a 82be
0.15165006 -0.39371932 0.09311313 -0.15311562 0.1472122 0.16951813 -0.050130934 -0.031066548
0.2995139 -0.0048860847 -0.2332282 -0.115638435 -0.00056720356 -0.013594098 0.26161212 -0.048866943
0.34128916 0.14180548 0.24824178 0.0013862678 0.11357197 -0.02898897 -0.0029813973 0.084011845
0.019857377 0.21333069 -0.3198346 -0.11642144 0.33619058 0.15573706 -0.21042493 -0.09473897
-0.1221321 -0.28344163 -0.1094125 0.23433515 -0.08152509 0.07228636 -0.13269985 0.09582558
0.15755486 -0.29174492 0.06536257 0.1559293 0.06595164 -0.108354576 0.28270653 0.39684865
-0.00897385 0.14175163 -0.0086830715 0.13884938 0.22619623 -0.15695445 -0.03370454 -0.26540706
0.05721725 -0.10025674 0.27607065 0.11514306 -0.22737837 0.11245548 -0.26248288 -0.10598904
0.20652328 -0.00014927046 0.16034132 -0.12228997 -0.21583457 0.1391841 -0.10149478 0.021790871
0.2631947 -0.101651445 -0.1644497 0.06514052 -0.13702576 0.015735766 0.12339722 0.035713777
0.24549429 -0.20071582 0.24920747 -0.15089868 -0.060898636 -0.029884052 -0.0017795404 0.22289808
-0.013725301 -0.28568828 -0.094468534 0.060290355 -0.16910222 0.07043995 -0.09099772 0.049079034
-0.12729605 0.08344262 0.05920405 0.017917586 0.09594237 0.15486643 0.073874995 0.038367055
0.23527797 0.26578033 0.12659 0.15903421 -0.13903037 0.052823476 0.110514894 0.029112961
-0.21103868 0.046467904 -0.058795195 0.039672565 0.1876416 -0.18981786 0.14071976 -0.20519263
0.08991142 -0.16699915 -0.031462565 0.20414244 0.2829133 0.1348677 -0.086125255 0.2885248
-0.29830626 0.13869764 0.13048582 0.2808304 0.08397517 0.08861223 0.022103744 -0.1608963
-0.04446756 -0.024422582 -0.03603513 0.19743882 0.20329998 0.056139804 0.045252465 -0.1094198
0.1486938 -0.27644706 0.1043292 0.080812626 -0.030401617 -0.18132053 -0.15736835 0.109937504
0.15467884 0.0015022868 0.1766407 0.08281536 0.048619166 0.33867022 -0.2656326 0.17329203
0.16170776 -0.14388555 0.12307755 0.23203884 -0.17112091 0.25847602 -0.29944345 -0.22389838
0.21266028 -0.18514112 -0.31996468 -0.15557724 0.18013327 -0.08127545 -0.24540597 0.07072049
-0.03129797 -0.26415804 -0.29777536 -0.047122132 0.24513446 -0.17474875 0.30994692 0.13427117
-0.11535066 0.30063632 -0.0439694 0.04573642 0.0465066 -0.17558973 0.017202199 0.20442575
0.0047456482 -0.14708175 -0.057050783 0.16159968 0.113458954 0.021682557 0.0024143567 -0.24253756
-0.106442206 -0.21243179 0.054516528 0.23608549 0.17760922 -0.09909976 0.24848044 0.1399569
0.08762796 0.20713642 0.046969716 0.04224929 -0.14210205 -0.021573454 -0.025878556 0.2668589
0.116407804 0.042030074 0.08740353 0.25426862 -0.14503846 0.029824877 -0.11582553 -0.12785107
0.05507982 -0.24882348 0.0054027885 0.11654349 -0.2513532 -0.08468735 -0.07233938 0.055885565
-0.2754212 -0.41000435 0.22096296 0.22123931 0.07192267 -0.26976195 0.18552689 0.0460025
0.23127289 0.09883485 0.1328671 0.26082703 -0.31565255 -0.065854535 0.27412313 0.050943602
-0.026816348 -0.12331319 0.054933 0.29514048 0.25479463 -0.1683598 -0.105458535 -0.25398552

linear2.weight f4 [3, 256]
00000000: 065a 4a3d 86f2 97bc 0d94 143e dcaa d43d
00000010: e0c0 ed3d 091c 663e b0eb e23d b4c2 1cbe
00000020: 0e0e aabd ba45 9fbd 5fe7 f73d 9df7 dcbd
00000030: 69bf cdbd 70c6 42be 3795 0b3e 356f 54bc
00000040: 9987 823e 5b54 413e 26c7 3f3d 2c2c 31be
00000050: 2006 453d 160a c83d 2c7e 0bbe ef20 593d
00000060: c620 033e e70e b8bc 7339 923d cefd ff3d
00000070: bfd4 fe3c 7008 e93d 788d 29bd 705b 71be
00000080: 2a13 42be 1a16 303d da07 03bc 55d8 74bd
00000090: 6290 85ba be1f d13c 7742 15bd f750 29be
000000a0: 91a5 383e d3b9 1b3c fc83 29bb 3412 e238
000000b0: 16a1 ed3c 1b9f 3cbe 2e37 f13d 7ff1 4a3d
000000c0: 852d a23d 6afc c0bd cf14 093d d952 b2bd
000000d0: 7f1e 0dbe 4811 bfbb 1d10 29be 5a5f 1e3c
000000e0: 27d4 7fbe 4bee 653d 779d fabd 2e2b 6b3c
000000f0: 171a d8bc 5f89 87bd 5f47 4ebd 8e8f b23e
00000100: 849f b73d b8a8 633d 9cfc 693e c6a0 8f3d
00000110: 540f d7bd 7d9d eb3d 7d0f 3abe b42d 8bbd
00000120: 30e8 f7bd e9e9 cf3b 2aa9 ac3d 4129 36be
00000130: bfb2 df3a 4466 103d 6a90 a23b c4bd 50bd
00000140: e35f be3d 55bd 8fbd 32e4 f4bd 982e 863d
00000150: d3eb 18be bf30 1ebe 28de 1ebd 72fa a9bd
00000160: 607e 043e c7f1 513c 88b9 b13d c83f 71bd
00000170: 40d2 243e 7be6 0fbe 87b9 bdbd 4d09 9e3d
00000180: aa01 4ebe 4d1d c5bd 5170 f2bd c8fd d83d
00000190: 7752 c83c 3ccd 0dbe 1ee9 6ebe 54df 2cbe
000001a0: f493 b7bd 1f22 cdbd 0287 2dbe e72a a8bc
000001b0: 02ac be3c c44b 39bd ac8a 493e c0c2 91bd
000001c0: 5fad a13d 86ff 83bd b0bc 0fbe aa51 703e
000001d0: 24ad 0d3e 9ba2 16be c1a6 893a a5cf adbd
000001e0: bf63 1c3e 5fca 4a3e 5f03 83be 7113 2e3d
000001f0: 2653 033e 4176 2fbd 8d0a 36be 5619 24bd
00000200: f2a9 053d 8496 aebd cc72 9fbd 0220 14be
00000210: c8d2 b2bd 7d4f 29be 4abc cbbc 5aaa 96bd
00000220: 2850 29be 17f9 43be 386c 39be 3eae 563d
00000230: faf3 abbd 48d0 aabd 2772 c1bd 0a47 3dbd
00000240: 8ac5 30be eff9 e2bc ae48 dbbd 96c3 f0bd
00000250: bf3d 933c 4593 1ebd 2743 ecba 7a5c d6bd
00000260: 74be 0abe c58b b4bd 9664 a3bd 9cd7 d13d
00000270: 1177 9dbd 3ab2 6bbd 8a87 43bd 0fe7 b23c
00000280: 8239 febd 363a 9c3c 6f06 ce3c 9c62 a3bd
00000290: f8eb 313e 2417 bcbd cf09 6c3d c3a5 b13d
000002a0: fe95 6abd 8119 013e 74be d63d 0d3d c43c
000002b0: e04e 9cbd 7b1f f3bd 8888 0cbc 05a6 98be
000002c0: 3893 25be f7f6 7c3d 84ca bf3c e691 21be
000002d0: a983 dd3d 5eda 04be 0d8b a7bb f2cb e93d
000002e0: 1ae6 573d 0f01 ccbc ddff 233e 80a7 8abd
000002f0: 7b84 dcbd bf8e 373d ac72 3bbe 4424 94bd
00000300: e338 03be 023f 6fbe 876d 62be 2c66 b43d
00000310: 1b8c e2bd af51 d5bd f620 24bd 388e 6b3d
00000320: 9a03 c3bd fdd1 133c 1773 833c 7530 183e
00000330: 412f f8bc 01a1 8dbd ea4c 073e 5a88 55bd
00000340: 169a 21be 7570 0f3e a792 9f3d 8295 1ebe
00000350: 215a f9bd caf1 35be ea1c dfbd 30e0 b9bc
00000360: 5e46 1b3e a8c3 02be 8ac5 a7bd 1564 783d
00000370: 3436 19bd 6b74 f7bd b328 f4bd 8068 2cbe
00000380: 3b62 71bd ed27 3f3c 4198 4a3c f44d 3d3d
00000390: d05a f8bc ecfd 49bd d45c cb3d da5e f3bd
000003a0: b40c 1f3d 8850 da3b 69ee 3dbe b4b6 e0bc
000003b0: a0a8 3f3c daf9 b6bc 7cd1 47bd 5470 12bd
000003c0: 5754 243d 5d77 dcbd 9ed3 efbd b06a fabd
000003d0: 2dda 003c 6c72 b7bd f545 b0bc fae3 38bd
000003e0: 48c0 9e3d b3d3 b1bd 9d8c 4ebc 827d 1abe
000003f0: c886 3ebe 7d36 f33d a81e ffbd 717d 95bb
0.04940226 -0.018548261 0.14509602 0.10384151 0.116090536 0.22471632 0.1108011 -0.15308648
-0.08303462 -0.07776971 0.121046774 -0.10789416 -0.10046274 -0.1902101 0.1363114 -0.012965967
0.25494078 0.18879835 0.046820782 -0.17302006 0.048101544 0.09767549 -0.1362235 0.053009924
0.12805471 -0.022468043 0.07139864 0.12499581 0.031107305 0.113785625 -0.04139468 -0.23570037
-0.18952623 0.042989828 -0.007997477 -0.059776623 -0.0010190124 0.025527831 -0.03644034 -0.16534792
0.18031909 0.009504753 -0.0025866022 0.000107799104 0.029007476 -0.18420069 0.11778103 0.049546715
0.079188384 -0.09423144 0.03346711 -0.08707208 -0.13781165 -0.0058309175 -0.16510053 0.009666288
-0.24983273 0.056135457 -0.12237065 0.014353557 -0.026379628 -0.06617998 -0.050361034 0.3487515
0.08965972 0.055580825 0.22850269 0.07013087 -0.105009705 0.11504648 -0.18169971 -0.067958266
-0.12104833 0.006345023 0.08430703 -0.17789175 0.001706682 0.035253778 0.004961063 -0.050962225
0.09295633 -0.07018534 -0.11957587 0.06551856 -0.1493371 -0.15448283 -0.038786083 -0.08299722
0.12938833 0.012813992 0.086779654 -0.058898717 0.16095829 -0.14052765 -0.09263902 0.07716618
-0.20117822 -0.09624729 -0.11837829 0.1059528 0.024453385 -0.13847822 -0.23331115 -0.16882068
-0.08963767 -0.10016274 -0.16946033 -0.02052827 0.02327538 -0.04523827 0.19681805 -0.07117224
0.07894396 -0.064452216 -0.14036822 0.23468652 0.13835579 -0.14710467 0.0010501967 -0.08486871
0.15272425 0.19803761 -0.2558851 0.04249901 0.12824687 -0.042837385 -0.17777462 -0.040063225
0.032632776 -0.08524802 -0.07785568 -0.14465335 -0.087316096 -0.16534229 -0.024870057 -0.07356711
-0.16534483 -0.19137989 -0.18107688 0.052412264 -0.08396144 -0.08340508 -0.09445601 -0.046210326
-0.17262855 -0.027707068 -0.10707222 -0.11756055 0.017973779 -0.038714666 -0.0018025384 -0.10466857
-0.13549215 -0.088157214 -0.079781696 0.10246202 -0.07688726 -0.057543017 -0.047736682 0.021838693
-0.124133125 0.019070726 0.025149552 -0.079777926 0.17375171 -0.09184101 0.05762654 0.08674195
-0.05727195 0.12607385 0.10485545 0.023954893 -0.07632232 -0.11871239 -0.008577473 -0.29814163
-0.16169441 0.06175896 0.023411997 -0.15778312 0.10816128 -0.12973925 -0.0051130117 0.114158526
0.052709676 -0.024902849 0.16015573 -0.06770229 -0.10767456 0.044813868 -0.18305463 -0.072334796
-0.1281467 -0.2336388 -0.22112094 0.0880855 -0.11061879 -0.104159705 -0.040070496 0.057508677
-0.09522171 0.009022233 0.01604609 0.14862235 -0.03029597 -0.06915475 0.13212934 -0.052131988
-0.15781435 0.14007743 0.077916436 -0.1548672 -0.12175394 -0.17768016 -0.10894187 -0.022689909
0.15163562 -0.1276995 -0.081919745 0.06064232 -0.037405208 -0.12082752 -0.11921825 -0.16836739
-0.05893157 0.011667234 0.012365402 0.04621692 -0.03031674 -0.049314424 0.09929815 -0.11883326
0.038830474 0.006662432 -0.18547978 -0.02743087 0.011697918 -0.022335935 -0.048783764 -0.035751656
0.040119495 -0.10764954 -0.11710285 -0.1222738 0.007864517 -0.08957371 -0.021517733 -0.04513929
0.077515185 -0.086829565 -0.012606767 -0.1508694 -0.18606102 0.11875627 -0.12457019 -0.004562073

linear2.bias f4 [3]
00000000: 4a31 79bd 791f b2bd 6a1d c9bd
-0.06083802 -0.08697409 -0.098200634
